cifar_net.pth (torch, 252133 bytes, 10 tensors)

conv1.weight f4 [6, 3, 5, 5]
00000000: 9a04 db3d ff28 1e3d 62d2 bc3d ff4d d53d
00000010: e028 013e 546e 303e 2620 2f3e e238 08bd
00000020: 167e 39bd e16f 6d3d a5e8 603e ca0c 123e
00000030: 9666 bd3c 3de1 09be 0d70 a63c 1c39 1d3e
00000040: d2e9 113e b664 a0bd 1a5d f3bd 8946 d7bd
00000050: 49fe 98bc 4c4b 0bbe 4510 0fbe 74d8 3d3d
00000060: b69f a83d d966 01be d28a 6abe 1afe 9ebe
00000070: f6d9 f7bd f443 15be dc19 d53d 3f04 4f3d
00000080: 298e 8abe c693 d2be 0a6b 77be 353d 983e
00000090: 5591 ef3d 935d 8fbe e0f0 bdbe 594f afbe
000000a0: 2288 373e 00ba 2c3b e23d 32be cb57 2ebe
000000b0: 9cf1 1bbe 75fb 5e3d 3bee 24be 0b02 0ebe
000000c0: 3b41 06be 0b68 b3bd 141b 963d 8f6d f13c
000000d0: 0109 f5bd 1ec1 11be 5b32 adbd 5025 a53e
000000e0: 007c 2d3e ab0b 12bd 6208 6bbe 23be eabd
000000f0: da3f 9a3e a062 b13e 6c8e e63c ae43 14be
00000100: 5dd1 94be ee0b b43e 5b98 133e a7ac 2fbd
00000110: 9b61 863a 4db3 20be d719 793e fec3 003e
00000120: a597 d43d cbe2 db3d 569c a13c 2bdc acbd
00000130: 2f1f 1cbe be43 64bd ed60 903d ec64 5bbd
00000140: 213f f3bd d2a9 82be ef02 71be b812 59be
00000150: c367 b2bd dbef 28be 603b 82be b290 f7bd
00000160: 9c30 35be 93d2 72bd fe2e 21be caac 01be
00000170: 6c05 29be 395a 44be 543c c8bd 8af6 7dbe
00000180: f468 79be ccc3 83be 4cf4 cabd 7193 a4be
00000190: 78af 8f3d 5832 c93d 9da4 133d 503a 07bd
000001a0: 3951 6cbc 9a18 01be 0c00 883d aaa1 cd3d
000001b0: 1105 85bc c60d bebd e878 03be 147e 01bd
000001c0: 68f8 2dbd e1a9 d13d 5bd4 c4bd 283c 47bd
000001d0: 793e 163e e414 163e c87f 84bc 2168 ad3c
000001e0: 1a46 b9bd 8a6d 713b d542 843a 19e8 0fbc
000001f0: 40d8 27be 4b00 413c 432d 813e 8022 5c3e
00000200: e162 573e a839 053e cdcc 063e f29c 4a3e
00000210: 20e4 1f3e cb32 993e 4450 553e 0df9 ed3d
00000220: 5d05 403e 3c9c 873e 4310 873e 5bb0 583e
00000230: 968a 963d 9a52 e63d 2f32 513e 9cb7 b13e
00000240: 3094 6f3e 907f 463c 4f3a eb3c 405a 9b3d
00000250: 0694 ff3d 46c5 a03d d183 67be da49 80be
00000260: cc62 a1be 8e04 94bd 5c88 bcbc 497e 38be
00000270: c3ad 1fbe f503 30bd 4bbe 3a3c e039 a93d
00000280: 90a9 e6bc 1897 fa3d cf6a 833e 0e37 743e
00000290: fb93 253e bd0f 693e 80fd 683e 94fc 123e
000002a0: 9820 a33d c1b5 e33d eb84 663e 0dd2 aa3e
000002b0: b265 5a3e ef03 763e 378a 5b3e 1d9f a8bd
000002c0: 4c60 66be 74e7 6bbe 965c 0ebe 3872 9a3d
000002d0: dde8 85be 60cb f3bd 06f3 debc 860b a43d
000002e0: 446c c8bc c554 17be 3df3 673c 5cbb d3bc
000002f0: 5882 a0bd d246 ebbd 5c1e 3bbe fde0 61bd
00000300: ae6d 48bc 4fb2 cdbb baa0 dbbc 0f75 43bd
00000310: 7c9f 0bbd 9380 50bd bf74 78bd de0a d2bd
00000320: 2313 b4bc 6941 9bbd 88ef e9bb fa43 0e3e
00000330: c53e 8c3e dadf e5bd 4bae 8bbd cdf4 093e
00000340: 26a0 9a3e 7e7b 833e 0bc9 53bd 1092 29bc
00000350: 2067 013e c95d 593e 09a9 193e 7396 e13c
00000360: 3be5 493c c370 483e 6b2e 743e ce43 b43d
00000370: e543 f8bb 22fa 5cbd ee27 123d 85a1 43bd
00000380: 5d52 33bd d2de aebd 3797 dcbe 6a4b f8be
00000390: c69f dbbe fdb2 81be a17c b73c d185 323e
000003a0: 55d5 5f3e b203 abbd 52d2 07be 9c43 723d
000003b0: 63f7 c53e b13d d63e 6820 fb3e cb60 703e
000003c0: 0234 68be 7971 72be 0c46 0cbe e7f4 20be
000003d0: 05ca 15be f30d b63d 51b4 b23c d9ef abbd
000003e0: 7384 00be 1779 3dbc c8d4 bcbd 7f41 4dbe
000003f0: cd6b 81be fbf8 53be 7e69 8bbe 553b 02bb
0.10694237 0.038613316 0.09219815 0.10415267 0.12613249 0.17229587 0.17102107 -0.033257373
-0.04528626 0.057968024 0.21963747 0.14262691 0.023120206 -0.13464828 0.020317102 0.15353817
0.14249352 -0.07831709 -0.11882992 -0.105115004 -0.01867594 -0.13602942 -0.1397105 0.046349004
0.082335874 -0.1263689 -0.22904518 -0.3105324 -0.121021196 -0.14576703 0.10405323 0.05054116
-0.27061585 -0.41128367 -0.24161926 0.29734197 0.11697642 -0.2800108 -0.37097836 -0.34240225
0.17923024 0.0026355982 -0.17406419 -0.17025678 -0.15228885 0.054439027 -0.16106503 -0.13867967
-0.13110821 -0.08760079 0.073293835 0.029471187 -0.11964608 -0.14233825 -0.0845687 0.3225503
0.16941833 -0.03565566 -0.22952417 -0.11462047 0.3012684 0.34645557 0.028144084 -0.14478943
-0.29065982 0.35165352 0.14413588 -0.042889263 0.0010252477 -0.15693398 0.24326263 0.12574765
0.103804864 0.10736617 0.019727867 -0.08440431 -0.1524627 -0.055728666 0.07049737 -0.053563043
-0.11877275 -0.25520188 -0.23536275 -0.21198547 -0.08711197 -0.16497748 -0.25435925 -0.12088145
-0.17694324 -0.05928285 -0.15740582 -0.1266357 -0.16505975 -0.19175042 -0.09777132 -0.24801078
-0.24356443 -0.2573532 -0.09909877 -0.3214374 0.0701589 0.098240554 0.03604566 -0.033014596
-0.014423662 -0.12607041 0.06640634 0.100406006 -0.016237767 -0.09279971 -0.12839091 -0.031614378
-0.042473227 0.1023748 -0.09610816 -0.048641354 0.14672269 0.14656407 -0.016174212 0.021167817
-0.09046574 0.0036838972 0.0010090718 -0.008783364 -0.16391087 0.011779855 0.25229844 0.21497536
0.21033813 0.13010275 0.13164063 0.19786432 0.15614367 0.29921564 0.208314 0.11619768
0.18752046 0.26486385 0.26379594 0.21161024 0.07350652 0.11246224 0.204293 0.34710395
0.23396373 0.012115374 0.028714327 0.07585573 0.12479405 0.07850127 -0.22608878 -0.25056344
-0.3152069 -0.07227431 -0.02301424 -0.18016924 -0.15593629 -0.042972524 0.011397908 0.08262992
-0.028157026 0.1223585 0.25667426 0.23849127 0.16169731 0.2275991 0.22752953 0.14354163
0.07965201 0.11118651 0.22511642 0.3336338 0.21327856 0.24024938 0.21439444 -0.082334734
-0.22497672 -0.23037511 -0.13902506 0.07541317 -0.26154223 -0.11904025 -0.027215492 0.080100104
-0.024465688 -0.14778431 0.014157114 -0.025846176 -0.07837361 -0.11488117 -0.182733 -0.055146206
-0.012233181 -0.0062773596 -0.026810039 -0.047719058 -0.034087643 -0.050903868 -0.060658213 -0.10255979
-0.021981781 -0.07580835 -0.00713915 0.13893119 0.2739164 -0.11224337 -0.06820353 0.1347229
0.3020031 0.25680155 -0.0517054 -0.010349765 0.12636995 0.21227182 0.15005888 0.02753756
0.012322719 0.19574265 0.23845832 0.08801995 -0.007576453 -0.053949483 0.03568261 -0.04776146
-0.04377972 -0.08538593 -0.43084118 -0.48495036 -0.42895335 -0.2533187 0.022398295 0.1743386
0.21858723 -0.08350314 -0.13263825 0.05914651 0.38665304 0.41843942 0.49048162 0.23474424
-0.2267609 -0.23676099 -0.13698596 -0.15718423 -0.14627846 0.08889379 0.021814497 -0.08395357
-0.12550525 -0.011564515 -0.09220272 -0.20044516 -0.25277558 -0.20700447 -0.27228922 -0.001987179

conv1.bias f4 [6]
00000000: e21a 36be c9cb df3e 8710 043e 7169 81be
00000010: 32eb d9be d43e 48be
-0.17783692 0.43710163 0.1289693 -0.25275758 -0.42562252 -0.19555217

conv2.weight f4 [16, 6, 5, 5]
00000000: dc10 493c e780 8e3c 8427 973d 6d8c fd3d
00000010: 64f8 ad3d ac5c 45bd f637 69bd 76ba 7c3d
00000020: aecb 8d3e c8c7 b8bd ab1b 00be d8f7 3dbe
00000030: 7e84 0bbd 27d0 833e 4420 f5bb 0cc0 bbbd
00000040: 2381 85be c1ca 7cba 37c8 9a3e 1d6b 4abd
00000050: 5fe0 72be 3e8c 91be d1c5 94bd 873f 8d3e
00000060: d774 0abc 1d8a 3b3e cde4 713e a405 ec3d
00000070: e3eb 013e 1c48 543e fd13 903d baba 0e3d
00000080: 362e 32bc 34ec 27be 9f57 cf3d a16c a9bd
00000090: 63fc 743d c7f4 d7bd a6bd 67bc e3a5 193d
000000a0: 445f 7f3d b640 a43d b4fa 81bd d3e0 bdbd
000000b0: 0e54 94bc 4381 6abd 50fe 7ebd 638c ddbd
000000c0: 18db afbc 661b 07be 6e63 9a3d de8d 4f3d
000000d0: cc45 9d3d 0baf 4ebc 5632 0c3e e1d9 12bc
000000e0: fffa b23c c26a 313d f439 a1bd ccad 6abd
000000f0: 2fbe 68bc f369 b3bc 1142 98bd bb4b 17be
00000100: 0362 6ebd 6efc 07bc 9284 0a3e 578a 133d
00000110: 8c8a 58be 82ae 64bd 14e6 773d feae 033e
00000120: 8dad d13d 2cea 1bbe 397d 08be 5d41 ff3d
00000130: eedb 8c3d 9213 0fbd e1da 16be 5690 c4bd
00000140: a772 3d3e 997e 793c db66 afbd b1ae 04be
00000150: cb3d 01be f104 863d f0db 55bc 9522 1abe
00000160: 8eef 7ebe 4606 23be bb3b 5e3e dee9 5a3e
00000170: aa43 24bd ffb2 5fbe 6ad4 b9bd 923b c73d
00000180: f247 b33c ad3b b6bd 6281 66be 7657 50be
00000190: 6a86 8f3d 3042 493d 2206 b4bd 9d23 4cbd
000001a0: a683 bd3d 98f7 0fbd 30df 0a3d 2a7e 003c
000001b0: ac22 abbd 2b7a 3cbd 6303 833d 9b2b f03d
000001c0: c71d f93d 568b dcbd cc9a 95bc b750 d83d
000001d0: c337 e43d 858a f63c 7447 bbbd 98d1 eebd
000001e0: 8a88 de3b 4d83 66bd 8e58 c8bd c43e 40be
000001f0: 59fe 23be f174 17be c135 bebd 5413 c9bd
00000200: 7e64 49be 072d 393e 6c96 2bbe 64e6 fbbd
00000210: d356 203d 4890 88be b57e db3e bbf6 e7bd
00000220: 400b 46be 62f2 d0bc 3ae8 a1be e532 123f
00000230: 14a8 4ebd 213e 03be 6941 963d f825 32be
00000240: b2f7 073f e48f 6fbe 3290 59be 5501 d5bc
00000250: 3a5e 1abe baaa d33e 7886 30be b0ee 06be
00000260: 9efc 2ebe 7ed1 05be 99b0 41be b6e8 0fbe
00000270: dc41 efbd 249c 22be 4ba3 9fbd 5360 363c
00000280: 12f1 f5bd bfde dfbd 08e1 b0bd 861b d2bd
00000290: 059a bdba 36f2 19be 7c56 c7bd 6369 773d
000002a0: 89f2 ef3d 2ad4 543d 925e 16bd 81f8 6a3c
000002b0: 4e09 6fbd 1f66 153d bb42 873d 5bf3 493e
000002c0: 4673 9c3d a7ac 8b3d cad1 063e 6cc3 083e
000002d0: 9eb2 36bd 7173 a63c 4d10 9bbc 3099 01bd
000002e0: 0fcc 83bc f59a adbd fd11 cdbd 755a 68bd
000002f0: b2d5 dfbc 928f 623d 239e ca3d 81df 78bd
00000300: b63f 983b a739 63bc f95f 153c 0b8c f23c
00000310: 7bca 1e3d bc98 9c3d 9a85 973d a203 9e3c
00000320: c945 e5bd b71d cfbc 5bb3 29be b82d bebd
00000330: 6f38 7cbc bac3 d1bd 462e fdbd 8037 06be
00000340: 4b54 cfbd 79c3 f43d e760 863d 02e6 9ebd
00000350: 8e89 653d 08cf 3d3e 09d1 c13d 4102 ef3d
00000360: 037b 613e 4ddb 933e aba5 763e fe30 c13d
00000370: c0c5 123d 3cb2 fa3d 1f3a 413e b8fd fd3c
00000380: 57b1 af3d 65b3 22be c8e5 f9bd d6f7 20be
00000390: b488 9fbd 1a6a 05bd ec6f 0cbe db63 80bc
000003a0: e3a7 03be bf94 7bbd 3257 283d 6df8 123e
000003b0: 8ee3 c23b 1d00 323d fecb 0a3e 4289 bd3d
000003c0: 24e2 003e 7fc9 013e ac6f 103e 60a2 f43d
000003d0: 449b ff3d 65dd 8c3b 3d03 a93d 1c18 6e3d
000003e0: 5496 463b ac95 64bd 8502 d03d 2400 383d
000003f0: 918f 6cbc 9847 4b3d af1a de3d f234 813c
0.012272086 0.01739545 0.07380584 0.123803 0.084946424 -0.048184082 -0.056938134 0.06170126
0.27694458 -0.0902248 -0.12510554 -0.18551576 -0.0340619 0.25744745 -0.007480653 -0.091674894
-0.26075086 -0.000964325 0.30230877 -0.049418557 -0.23718403 -0.2842731 -0.07264293 0.2758753
-0.008450708 0.18314405 0.23622437 0.11524513 0.1268764 0.20730633 0.070350625 0.034846045
-0.010875275 -0.16398698 0.10124134 -0.082726724 0.059811007 -0.105447344 -0.014144337 0.037511718
0.06234671 0.08020155 -0.06346646 -0.092713974 -0.018106487 -0.05725218 -0.06225425 -0.10817792
-0.021466777 -0.13194045 0.07538496 0.050672404 0.07679328 -0.012614976 0.13691077 -0.008963079
0.0218482 0.043314703 -0.07872382 -0.057294652 -0.0142055 -0.021901106 -0.07434476 -0.14774983
-0.05819894 -0.00829993 0.13527134 0.036020603 -0.21146601 -0.055830486 0.060522154 0.12859723
0.1023818 -0.15226048 -0.13329019 0.12463639 0.06877886 -0.034930773 -0.14731933 -0.095978424
0.18500768 0.015227937 -0.0856454 -0.12957264 -0.12621228 0.06543911 -0.0130529255 -0.15052254
-0.2489607 -0.15920362 0.21702473 0.21378276 -0.040103592 -0.21845625 -0.09073718 0.09728159
0.021884892 -0.08898101 -0.22510293 -0.20345864 0.07008059 0.049135387 -0.08790232 -0.04983865
0.092536256 -0.035148233 0.033904254 0.00784258 -0.083562225 -0.046014946 0.0639713 0.11727067
0.12163883 -0.10768764 -0.01826229 0.1056227 0.11143448 0.030095348 -0.09144488 -0.116610706
0.006791179 -0.056277562 -0.097825155 -0.18773943 -0.16014995 -0.14790703 -0.092875965 -0.0981814
-0.19667241 0.18083583 -0.167566 -0.12299803 0.039145302 -0.26672578 0.42870107 -0.11326357
-0.19340229 -0.025506202 -0.31622487 0.5710891 -0.05045326 -0.12816669 0.07336695 -0.17397296
0.5311233 -0.23394734 -0.21246412 -0.026001612 -0.15075007 0.41341192 -0.17238796 -0.1317699
-0.17088553 -0.13068196 -0.18915023 -0.14053616 -0.116824836 -0.15879875 -0.077948175 0.011131364
-0.12008871 -0.10931157 -0.08636671 -0.10259156 -0.0014465457 -0.15033802 -0.097332925 0.06040324
0.11716182 0.051960148 -0.036711283 0.0143414745 -0.058358483 0.036474343 0.06604525 0.19721739
0.07639174 0.0682004 0.13165966 0.13355798 -0.044603936 0.020318719 -0.018928671 -0.03164023
-0.016088514 -0.08476821 -0.100131966 -0.05672689 -0.027323578 0.0553127 0.098934434 -0.060760025
0.004646267 -0.013868726 0.00911712 0.029607793 0.03876732 0.07646319 0.07398529 0.019288842
-0.11194951 -0.025282724 -0.16572325 -0.09286064 -0.015394314 -0.1024241 -0.123623416 -0.13107109
-0.101234995 0.11951346 0.065614514 -0.07758714 0.056039385 0.18536007 0.094636984 0.11670352
0.22019581 0.2887825 0.24086635 0.09433173 0.03583312 0.12241027 0.18869828 0.031004772
0.08578747 -0.15888746 -0.122020304 -0.15719542 -0.07789746 -0.03257189 -0.1371457 -0.015672615
-0.12857012 -0.061421152 0.04109878 0.1435258 0.005947537 0.04345714 0.1355438 0.092546955
0.12586266 0.12674521 0.141051 0.11945033 0.124807864 0.004298853 0.08252571 0.05812846
0.0030302005 -0.0558068 0.101567306 0.04492201 -0.014438526 0.049628824 0.10844933 0.015772317

conv2.bias f4 [16]
00000000: ce18 debe 866c 233f 708e 713f 4221 28bf
00000010: ddf0 1ebf 7111 f1bd 91fd ee3e 6b68 3c3f
00000020: ec49 9c3a 5ce7 da3c 6cab d93d bd99 42be
00000030: 617d 5dbe 2dbd 173f 91dd 27be 4eb1 9c3d
-0.433783 0.6383747 0.9435797 -0.6567575 -0.6208628 -0.11770905 0.4667783 0.7359683
0.0011923886 0.026721649 0.10628399 -0.19003959 -0.2162986 0.59273034 -0.16393115 0.07651006

fc1.weight f4 [120, 400]
00000000: b5f0 9d3c 93b1 573d 9d32 42bb a5bb 023d
00000010: 2096 0ebc 2993 2abd 049a 453c a638 3f3c
00000020: 1ce9 f4bc 0e7a 51bd adc7 37bc ad8a 753d
00000030: 289e ebbb 1d64 c63c 757d aabd 95a3 183c
00000040: 0817 263c bfd1 083d 0c8d 8fba c21b 5a3b
00000050: 121d b43b 33df f73b 1d02 8ebc a719 bd3d
00000060: f02d 163e 54c7 93bc b4d8 763d 396c 61bb
00000070: 7a0d 2e3b a891 013c 3951 63bd 0d7b 273d
00000080: e5d6 3a3d 4f3b babc a668 1b3c 29e6 e03b
00000090: 0ae6 523b 333c 8e3c a3ac 133b bc3b 413b
000000a0: ccde 583b d612 1c3d 8fa5 55bd 8b85 45bd
000000b0: 9bb1 c4bc e825 a5bd ba6e 103c 9167 5ebb
000000c0: 407d 23bd 8895 ddbc 5d20 14bd 31b2 74bc
000000d0: 0502 cc3c a3b5 ccbc 4168 553d c9ac bebc
000000e0: 7ea8 7d3d c67a fbbc 7059 f63a 755d c73c
000000f0: bc97 283c 7352 46bc 9bbc a3bc f8a0 823b
00000100: 84e5 99bd 0c8b d9bb 5ea5 e0bc ac46 fe3c
00000110: c794 0abd 0b07 be3b 359a 18bc cdb4 6dbd
00000120: 4a9a 24bc fb21 2dbc e08e ed3b 8bca a939
00000130: ea11 43bc c205 373d 14ba 71bd a417 f5bb
00000140: 25db 14bd 369a de3c e427 27bd 786e ffbc
00000150: 150c e6bc 338b 4bbd 37ec 453c ee63 96bc
00000160: e18a 49bd eda7 513b 3a26 443d 2635 d1bb
00000170: 5b65 47bd 21c8 a0bd 2713 acbc 413a 783d
00000180: 5b7b c63d 3dd3 083d d902 323d 102a 0e3d
00000190: 70dc bebc 04f4 43bc cfae 4dbd 186f f93c
000001a0: cc8c 9c3c d128 3dbd 15bd 39bd 61f5 2bbc
000001b0: 3ba7 adbc 7648 233d 2804 f53c 4d91 1c3d
000001c0: 1911 1fbd fc23 e2bc fc79 043d cc31 05bd
000001d0: 8926 94bd d5b9 af3c fa3c 8abd 6854 953c
000001e0: 3d19 85bc 3f83 2a3c 0400 f8bc eef5 dcbc
000001f0: 4c99 c63d 9885 dabc 6f9c a6ba 560b bfbc
00000200: 3e14 a3bc 207d a4bc 2bc4 bcbc ca1c 693c
00000210: e797 e83c 6da5 273d b3fa 45bd 1b09 2ebd
00000220: 4e49 403d fce2 3dbc d811 a2bc cf86 ff3a
00000230: 6e3b 6fbc a5b8 11bd 2a81 e03c 3a4c 383d
00000240: 18d4 323d 9137 5b3c 68ce 133d 515f 19bd
00000250: fb34 86bc 821d 91bc a7d6 573d 2b57 813c
00000260: 0f4d 1cbd ebed 41bd f37e bf3a 6ec5 32bd
00000270: ff54 af3c 0cf2 013d a9ff 13bd 04df 81bd
00000280: da34 a1bc 42f7 d9bc 0c6b a4bb ff61 46bd
00000290: e4b1 e33a d7c3 2a3d b96f 393d 34d9 2bbc
000002a0: e4ed c2bc 1ec6 5a3c 4d69 f4bc c205 2cbd
000002b0: 7902 293d 5c81 f43c ff38 28bd 1c14 e4bc
000002c0: 579a 02bc 2122 10bc cec2 f13b 1967 3cbc
000002d0: 87a6 08bd e8e2 513c cb16 bb3c 5afc aabc
000002e0: d178 2cbd f1a6 ddbc fe9c 34bc 8c1e 2fbd
000002f0: 30f8 393b 7a10 99bd 9f7c 1abd 27e2 a7bc
00000300: ae8d 383d fd46 3bbc 6a5e 9f3c 9e01 cabc
00000310: bf75 3d3c d22c 19bd f3e5 15bd d863 5ebd
00000320: a5be c2bc f44d 2b3d 9309 ab3c 0030 21bc
00000330: 5e6c 3c3c 79df 64bd d4d7 d33c 87a4 32bd
00000340: 2443 16bd 817b 7eb9 6eda e73c 8778 033d
00000350: 2db6 3f3c b911 b1bc 50d7 083d 5db1 0e3d
00000360: 2476 1ebd 9868 d63c 0e93 17bd 9541 adbc
00000370: 5b06 6d3d 50fa 89bc 98b8 e73b c7a7 bc3c
00000380: b69f 193d 039d ac3c 0267 0dbd c0c7 603d
00000390: dcce 4c3d 0916 44bc b203 363d 5642 70bc
000003a0: 14ce edbc fe7b b53c 9c98 b0bc dad4 4bbd
000003b0: 5948 3a3a 330e f5bc 7b38 1d3b 7dce a93c
000003c0: b363 aebc eda6 34bd 7f6d 49bd dc61 aebb
000003d0: 1df6 4dbd 353f ed3c 7391 223b 8182 203d
000003e0: 6535 cd3c 78dd ce3c 7ea3 8cbc 44b2 3ebd
000003f0: 017e 0cbc 287d 2d3d c6b3 f7bb 35e7 0cbc
0.019279817 0.052659582 -0.0029632219 0.031917233 -0.008702785 -0.04164425 0.012060646 0.011671221
-0.029896311 -0.05114179 -0.01121704 0.059946705 -0.0071904846 0.02421766 -0.0832471 0.009316345
0.010137327 0.033403154 -0.001095207 0.0033280705 0.0054966295 0.007564449 -0.017334992 0.092334084
0.14665961 -0.018039383 0.060265258 -0.003439678 0.0026558326 0.007908262 -0.05549738 0.040888835
0.045615096 -0.022733359 0.009485399 0.0068633747 0.003218057 0.01736269 0.002253332 0.0029485067
0.0033091782 0.0381039 -0.052159842 -0.04822306 -0.02401047 -0.08063871 0.008815462 -0.0033936242
-0.03991437 -0.027048841 -0.036163677 -0.014935062 0.024903307 -0.024988955 0.052101377 -0.02327575
0.061928265 -0.030698191 0.0018794965 0.024336556 0.010290083 -0.012104618 -0.019987395 0.003986474
-0.0751448 -0.00663889 -0.027422603 0.031039558 -0.03383329 0.0057991794 -0.00931411 -0.058033753
-0.010046551 -0.010567184 0.007249698 0.00032385098 -0.0119061265 0.044683225 -0.05901535 -0.007479625
-0.036341805 0.027173143 -0.040809527 -0.031180605 -0.028081933 -0.049693298 0.012080244 -0.018358197
-0.04920471 0.003199096 0.04788802 -0.0063845096 -0.048680644 -0.078506716 -0.021005226 0.06060243
0.09691497 0.033404578 0.043459747 0.034708083 -0.023298472 -0.011960033 -0.05021554 0.030448481
0.019110106 -0.046181504 -0.04534634 -0.010495515 -0.021197906 0.039864026 0.029909208 0.038224507
-0.038834665 -0.02760505 0.032342896 -0.032518193 -0.072339125 0.021450916 -0.067499116 0.018228725
-0.016247386 0.010407268 -0.030273445 -0.026972737 0.09697208 -0.02667503 -0.0012711416 -0.023320835
-0.019907113 -0.020079195 -0.023042759 0.014228055 0.028392745 0.040929247 -0.04833479 -0.042489152
0.04694491 -0.011589762 -0.0197839 0.0019495132 -0.0146015715 -0.03557648 0.02740534 0.04499457
0.0436593 0.013379947 0.036085516 -0.037444416 -0.016382685 -0.017714266 0.052694943 0.015788635
-0.038159426 -0.047346037 0.0014609977 -0.043645315 0.021402834 0.031724975 -0.03613249 -0.06341365
-0.019678522 -0.02660716 -0.005017644 -0.0484333 0.0017371741 0.041690674 0.045272563 -0.010488797
-0.023795076 0.013352899 -0.029835368 -0.04199768 0.041262124 0.02984684 -0.04106998 -0.02784162
-0.007971368 -0.008797199 0.007377959 -0.01149919 -0.033361938 0.012810446 0.022838017 -0.020872284
-0.042107407 -0.027057143 -0.011023758 -0.04275374 0.002837669 -0.07473846 -0.037716504 -0.02049358
0.04505699 -0.011430499 0.0194542 -0.024658974 0.011563717 -0.03739626 -0.03659625 -0.054294437
-0.023772547 0.04182239 0.020878589 -0.009838104 0.011500446 -0.055877183 0.02585975 -0.043613937
-0.036685124 -0.00024269336 0.028302398 0.032097366 0.011701149 -0.021614896 0.033408463 0.034837116
-0.038686886 0.026172921 -0.037005477 -0.021149436 0.05786739 -0.016842991 0.007071566 0.023029221
0.037505828 0.021070963 -0.034522064 0.054877996 0.050001964 -0.011968144 0.044437118 -0.014664253
-0.02902893 0.02215385 -0.021557145 -0.049763538 0.00071061176 -0.029913997 0.0023989964 0.020728344
-0.021287775 -0.044104505 -0.04917669 -0.0053217243 -0.05028354 0.028960804 0.0024805933 0.03918696
0.025049875 0.025252089 -0.017167803 -0.046556726 -0.008574964 0.042355686 -0.0075592725 -0.008600046

fc1.bias f4 [120]
00000000: b8c0 33bc 52e9 16be 43c4 443c bcb5 7bbd
00000010: 65a0 27bc 4fcb 0e3e bd79 68bd 5afe ac3d
00000020: 957b a7bc 294a be3c bdc6 903a 3f57 fbbc
00000030: 4768 2c3d e3ba 2b3e b4e7 dc3d 4bca 0e3e
00000040: c29e 9dbd 6aeb febc ff17 e4bd b30f 173d
00000050: 2657 1e3d bcbb ddbc badc 1aba bd5c 0cbd
00000060: 2952 11bd f015 ea3d 80e8 9abd c8f3 d5bc
00000070: 5013 febc f570 613d 3777 9abc 3863 3c3d
00000080: 6205 333b 9940 443d b013 c8bc f6e8 5f3e
00000090: 022a b13d 1c49 2dbd d6e8 e7bd e15c eebc
000000a0: 331f 1f3b 53cd 26bc 28e7 733c d74e 783c
000000b0: 3b98 823d 28f1 d73c 3495 213d 94a5 083d
000000c0: 040e 823d d1f1 3d3e b84f 1f3d 56c7 913c
000000d0: 024f 5f3e 2b77 973d 673e 98bd a190 9d3c
000000e0: 5f56 18bb 41fc 9ebd a485 dc3c 24cd f6bc
000000f0: 1fae 253e 836b 8d3d 0c92 c13c 30ed b53c
00000100: df68 08be fc35 553a 24ee a13c 86a7 403d
00000110: 88fe b93d c355 5e3b 1cad 083d 8d7c dfbd
00000120: 3c91 783b 1276 863d 135d dfba 215e 083d
00000130: 3222 8b3d 7ff5 9e3c c923 debb 45f7 4a3d
00000140: 78a6 e1bd 7b8d 84bd 6edc f13d f9ed cfbd
00000150: 4113 c93d 3457 77bc 70f6 2abc 5881 e8bd
00000160: c707 ad3d d93a 83bc b6de 1d3b 32d8 1bbd
00000170: 483d 473c 56f2 823d e2c3 43bc b3d1 913d
00000180: c74e 41bd e87b 2b3d d1d9 ba3c 9353 0fbd
00000190: 58a1 093d c212 6f3e 4802 e03c ae67 253d
000001a0: 76d0 cb3d 5360 223d 6f1a bd3d e2f6 f4bd
000001b0: e86a 23bd 2517 2b3e 3e37 b6bc 77cb 3e3d
000001c0: ce9a 293e fbe1 33be 5549 bf3d 65e7 093a
000001d0: 6954 c43c 5e50 c93c d87f 9abd 98a8 033d
-0.010971241 -0.14737442 0.012009683 -0.061452612 -0.010231112 0.13944744 -0.056756724 0.08446951
-0.02044467 0.023228722 0.0011045557 -0.03068125 0.042091634 0.1677051 0.10786381 0.13944356
-0.07696296 -0.031118114 -0.111373894 0.036880206 0.03865733 -0.027067058 -0.00059075246 -0.03426813
-0.035478745 0.114299655 -0.07563877 -0.02611722 -0.031015068 0.055039365 -0.018855674 0.04599306
0.002731644 0.047913168 -0.02442345 0.21866211 0.086505905 -0.04230605 -0.11323707 -0.029097022
0.002428007 -0.010180789 0.014886655 0.015155516 0.06376692 0.02636011 0.03944893 0.033361033
0.063503295 0.18549277 0.038894385 0.017795246 0.21807483 0.07395776 -0.07433777 0.019234003
-0.002324484 -0.07762957 0.026919194 -0.030127116 0.16179703 0.06905272 0.02362921 0.022207826
-0.13321255 0.00081333495 0.019766875 0.047034763 0.09081751 0.003392563 0.033368215 -0.10912428
0.0037928363 0.06565489 -0.0017041288 0.033292893 0.067936316 0.019404171 -0.0067791683 0.04955222
-0.110180795 -0.06472298 0.11809622 -0.101528116 0.098181255 -0.015096474 -0.010434732 -0.11352795
0.08448749 -0.016019272 0.0024089045 -0.038047977 0.012160607 0.06393878 -0.011948558 0.07120075
-0.04719427 0.041866213 0.022808941 -0.034991812 0.033601135 0.23347 0.027344838 0.04038208
0.0995187 0.039642643 0.092335574 -0.11961152 -0.039896876 0.16708048 -0.022243138 0.046580758
0.1656296 -0.17566673 0.09340159 0.0005260616 0.023966031 0.024574455 -0.075439155 0.032143205

fc2.weight f4 [84, 120]
00000000: 1876 c4bd 653d 81bd 3290 523d eb5d 133b
00000010: cdde 21bd 7f7a 9ebd f9f6 4a3d 97f1 113d
00000020: 8d66 033d 7cf0 9ebc 5f2a 403c 11f5 8fbd
00000030: 5aba 8c3d 298b 913d 0cb7 6abc 6b83 bdbd
00000040: 4aff 8dbc 5690 95ba a0e4 3abc d53b 8abd
00000050: 8760 0fbc 1369 8d3d 1f09 31bc e452 39bd
00000060: 06ee 9f3d 3672 573d 8134 eebc 1bb8 5ebd
00000070: 3de9 863d 21d4 33bd 9ce0 41bd 57d7 413d
00000080: 8377 b3bd 622e ac3c 62b3 90bd 9705 4abd
00000090: 37e6 963a ebb6 1d3d f465 a53c c93b 563d
000000a0: 6165 683d 0e83 50bd f76a 6abd 44e3 a9bd
000000b0: ee0c a7bc dc63 f93c a00c 923c 1b5f 843d
000000c0: 4444 c2bd 9d3d 4bbd 7af5 2cbd 04eb c03c
000000d0: 4a9f 3b3d 9caa 733c 6bc0 b6bb c8f5 843d
000000e0: 2773 57bd f477 0cbd 2b83 913d a342 d63b
000000f0: 167a b5bd c32a 993d 767a aebd 4f06 8b3d
00000100: 1225 323b 4755 30bc 4a62 09bc 4837 a7bd
00000110: a007 8d3b 27bf cfbc e41c 2dbd f6f2 b039
00000120: 785f 3d3d 877c 21bd bd13 cfbd 2c37 403d
00000130: 91a0 c53c e41e 3abd 9281 b93d 0e3a 8bbd
00000140: d514 0d3c 1690 47bd ca64 d53b 73c9 89bd
00000150: fcd2 3ebd b6c4 943d c566 28bd 5289 91bc
00000160: e0ca ad3d a33b 873d 4df1 52bd 33d1 5abd
00000170: 1e1f 62bc 1c99 86bd 58aa 1f3d 910a be3c
00000180: 37d9 73bc f09e 803c 4523 a03d c2af 8bbd
00000190: 3bce 683d b522 72bd 7e0a 633d 7c6e 87bc
000001a0: c6b3 5dbd 6207 453c 9b49 393a 93f2 593d
000001b0: 418a 76bd 2432 b9bd 246e b4bc 47be cbbd
000001c0: 51fc 953d 110c af3c 464c c13c a900 2d3d
000001d0: 24a1 6dbd 5bcd b63d 32c6 dc3c 05ad 793d
000001e0: aedb babc 7793 ea3c 9a34 503d b929 2abd
000001f0: 94ba b13d 48ec ae3d 6ae1 c2bd 3895 6fbd
00000200: 70b2 52bc f94f 1abd 9315 e2bb 443b 9e3d
00000210: ab53 ecbc 60b5 f63d 5357 8aba 6e5f 373d
00000220: b34c 323c a1f4 b8bd ba94 d33c a792 e3bd
00000230: 677e ab3d 2c1e 6b3d 8c7e 0bbd e972 26bc
00000240: 39f0 b43d ba27 243d 750a a4bd c158 083d
00000250: 0fb3 fe3c 9def 10bd 8395 683d 49f3 1cbc
00000260: 2649 8cbd 6207 b4bc 5164 a2bc 1573 663d
00000270: dfc1 f5bd de93 9fbb 1a09 173d ad40 85bc
00000280: 92ea a43c d8de ca3a eebc 17bc f949 84bd
00000290: 085a febd c42e 823c f7bd 04be b12f 84bc
000002a0: 22e3 bd3b f1cb 2a3e cba1 a83c 9d54 613c
000002b0: 552c d33c 6444 70bd 5a6e b8bd 2d46 a43d
000002c0: 334a 9cbd e9c3 98bd e086 4d3d cd8b d4bd
000002d0: f8f2 a63d 8035 c3bb 6aa2 2dbd 88fd b63c
000002e0: 9f7b 4a3d 63fd 96bd 6295 43bd 85ee 413b
000002f0: 413d 613d 2030 01bd ca99 713d 95ed 853d
00000300: 5642 56bd 5a18 1ebd 5baa bebc f724 893d
00000310: 1648 f1bd a63f e43c 9e42 a6bc 5a81 f53b
00000320: 5d92 29bd 85dc a13d 9cc5 5e3c 226c 323d
00000330: eac5 c93c 336a 03bd 1890 c0bd 8db2 94bd
00000340: 7135 943c c794 5abc efa0 a0bc d9f3 1abd
00000350: 03b2 993d e37b b43d 0c9d cb3d f3b9 3e3d
00000360: ab1b 5abd 1e95 a63d 8df4 bfbd 9fa0 89bd
00000370: 5127 483d 1951 6a3d 80eb 78bd e356 543d
00000380: 2f5c d2bc 4841 513b 72d9 06bd 8649 b23d
00000390: 17fb 233c 1c63 53bc 9b75 923b dd9e 9dbc
000003a0: 74a5 8bbd beed abbd ac68 b63c 768f 85bb
000003b0: 2985 c0bd 257e 2e3d 07f8 91bd 3295 34bd
000003c0: 307f 32bd 5fcc 2cbb 0f58 6ebd 10af e43d
000003d0: 60bb a1bd 5783 b9b8 71cc 26bd 9d91 41bd
000003e0: f502 b8bd d7bc 11bd 468f 9e3d b667 6bbd
000003f0: 68be 143d 85ce 72bd 8137 3cbe f442 ce3c
-0.09592837 -0.06310538 0.051407047 0.00224864 -0.03951912 -0.07738208 0.049551938 0.03563079
0.032080222 -0.019401781 0.011728852 -0.070291646 0.06871481 0.07106621 -0.014325868 -0.092535816
-0.017333645 -0.0011410813 -0.0114070475 -0.06749693 -0.008751041 0.06904807 -0.010805397 -0.045245066
0.07809071 0.052599154 -0.02907777 -0.054374795 0.065874554 -0.043903474 -0.047333345 0.047324505
-0.087630294 0.02101821 -0.070654646 -0.049321737 0.0011512701 0.038504522 0.020190217 0.05230311
0.056737307 -0.050906233 -0.057230916 -0.082953006 -0.020391908 0.030443124 0.017828286 0.064634524
-0.09485677 -0.049619306 -0.042226292 0.023549564 0.045806207 0.014872219 -0.005577137 0.064921916
-0.052600052 -0.034294084 0.071050964 0.0065387054 -0.08861177 0.07478859 -0.08519451 0.06788313
0.002718274 -0.010762519 -0.00838525 -0.08164841 0.0043038875 -0.025359703 -0.04226388 0.00033750356
0.046233624 -0.0394254 -0.10111187 0.046927616 0.024124416 -0.045439616 0.09057917 -0.067981824
0.008610924 -0.048721395 0.006512259 -0.067278765 -0.04658793 0.07264082 -0.041113634 -0.017765675
0.08485961 0.06603172 -0.051499654 -0.053422164 -0.013801364 -0.06572172 0.03898081 0.023198398
-0.014883331 0.015700787 0.07819227 -0.068206325 0.0568373 -0.05911513 0.055429928 -0.016532175
-0.054126523 0.012025686 0.0007068158 0.053209852 -0.060190443 -0.09042767 -0.022025175 -0.09948402
0.07323516 0.021368058 0.02359594 0.042236958 -0.058015004 0.08925887 0.026949976 0.06095602
-0.02280983 0.02863477 0.050831415 -0.041543696 0.08678165 0.08541161 -0.095156506 -0.058491915
-0.012859926 -0.037673924 -0.0068995445 0.07726148 -0.02884849 0.12046313 -0.0010554589 0.044768743
0.010882544 -0.09031034 0.025827754 -0.11111956 0.08373719 0.05740182 -0.03405623 -0.010159233
0.08834881 0.04007695 -0.08009807 0.033287767 0.031091241 -0.035384763 0.05678321 -0.009579488
-0.068498895 -0.021976177 -0.019823225 0.056262095 -0.119998686 -0.004869922 0.036873914 -0.016266191
0.020131383 0.001547779 -0.009261353 -0.06459422 -0.12419516 0.01589144 -0.12963091 -0.016136022
0.0057948986 0.1667936 0.020584961 0.013753084 0.025777975 -0.058658972 -0.09005423 0.080211975
-0.0763134 -0.07459242 0.050177455 -0.103782274 0.08151811 -0.0059573054 -0.04239122 0.02233769
0.0494343 -0.073725484 -0.047749884 0.0029591632 0.054990057 -0.031540036 0.058984555 0.06539456
-0.052309357 -0.038597442 -0.023274591 0.066965036 -0.117813274 0.027862381 -0.020295437 0.0074922265
-0.04139935 0.07903389 0.013596918 0.043560155 0.024630506 -0.0320837 -0.09402484 -0.07260618
0.01809189 -0.013341135 -0.01960799 -0.037830207 0.07504656 0.08812692 0.09942064 0.046564054
-0.053249042 0.081339106 -0.09372816 -0.06720089 0.04886562 0.057206247 -0.060771465 0.051840674
-0.025678722 0.003192978 -0.032922216 0.0870543 0.010008595 -0.0129020475 0.004469586 -0.019240791
-0.06818667 -0.08394955 0.022266708 -0.0040759398 -0.09400398 0.04260077 -0.071273856 -0.044087596
-0.043578327 -0.0026366932 -0.058189448 0.11166203 -0.07897067 -8.8459514e-05 -0.040722314 -0.04725801
-0.08984939 -0.035580482 0.07742171 -0.057471953 0.036314398 -0.059278984 -0.18380548 0.02517841

fc2.bias f4 [84]
00000000: 66ed 30bd 7b3e 8b3e b9db 03bc 28eb 5ebd
00000010: 11b6 36bd c57e f43c 4f7c a1bc f03c 273e
00000020: 1b85 e3bb 2e09 cd3d e389 393d c229 063e
00000030: 8ab2 773e 4d2a 5bbd 63f6 a23e fa06 873e
00000040: f6c8 7fbd 725f 12be dd3d da3d 3fd8 b13d
00000050: 653e a9bd 950e cb3e ba4c 7abd f7cf cc3d
00000060: 2c83 09be 2cff 84bd ec32 00bb e77e 2ebd
00000070: 442d eb3d 65e0 ed3c e73d 953e 526c 1f3d
00000080: d032 ad3d 569e 2a3d 7084 f93d 008d 3f3e
00000090: 8f9c cd3d 8e84 8ebd 9dbc 953d 265b 60bd
000000a0: 2442 e83c 86d9 6cbb 05c6 a6bd c157 183e
000000b0: 004f 8d3d 0620 973c 0db1 1c3e b12f 1a3d
000000c0: c87f af3d 9a72 0c3e 06e4 5dbd b95b c3bd
000000d0: 2ec5 40bd 2c8f d7bc b997 0e3e c9bb 643d
000000e0: 37d8 d8bb dd20 a13c 5633 043c f33f 133e
000000f0: 900b 873d f4ae 97bb 3630 f63d 84d2 563d
00000100: 9e10 8cbd d5db e03d 13e7 633e 8c21 ac3c
00000110: 4b63 d5bd 9879 903e 2621 663a 94e1 db3c
00000120: 3952 9d3d 0a68 a7bd ecc8 553e 7b6a 38be
00000130: bf88 863d 323a 323d c936 48bd acf1 f73d
00000140: 4c77 613e 0a4b 733d 45d9 ca3d 673e 173d
-0.04319515 0.27196106 -0.008047991 -0.05442348 -0.044607226 0.029845605 -0.019712595 0.1633184
-0.0069433576 0.100115165 0.045297515 0.13101867 0.24189201 -0.053507138 0.31828603 0.2637251
-0.06244751 -0.14294222 0.10656331 0.08683824 -0.08263854 0.39659563 -0.06110833 0.10000604
-0.13428944 -0.06493983 -0.0019561602 -0.042601492 0.11483243 0.029037664 0.2914879 0.03892166
0.08456957 0.041654907 0.121834636 0.18706131 0.10039627 -0.069588766 0.07311366 -0.054774426
0.02835185 -0.0036140396 -0.08143238 0.14877225 0.06899834 0.018447887 0.15301915 0.03764314
0.08569294 0.13715592 -0.05417254 -0.09538979 -0.047063045 -0.026313387 0.13925065 0.05584315
-0.0066175717 0.01966899 0.00806888 0.14379863 0.06594002 -0.0046290103 0.12020914 0.052446857
-0.06839107 0.1097943 0.22256117 0.02101209 -0.10419329 0.2821777 0.0008778743 0.026840962
0.07681698 -0.08174141 0.20877427 -0.18009369 0.06569051 0.04351253 -0.048880372 0.12106642
0.22018164 0.059397735 0.09904722 0.036924746

fc3.weight f4 [10, 84]
00000000: 9077 bdbd cc61 19be 1e9a 16be be16 76bd
00000010: 346d 823e 1e6c af3b 2f49 4f3d c18f cd3d
00000020: ae25 2f3e 8c76 3b3c 7503 24be 4618 153e
00000030: 3f95 b23d c51e 05bc 293d 343e daa4 8f3c
00000040: 4592 053e 1a50 5f3e 7a23 83bd f764 6ebd
00000050: 1cfa 28bd 56dd 7dbe caff a9bd 58c7 133e
00000060: d0a7 c73d 3241 8dbc fca3 893d 54d1 19bd
00000070: 2926 39be 7b30 923d 34ce 5fbe 0590 a63d
00000080: 41fd 583e 38fb 02bc d376 febd 0f25 ce3c
00000090: 8f1d 47be 12f7 b83d 223b 773d 7578 a23b
000000a0: af3f 7a3d 82fd d83d ec49 cc3d c08e 563d
000000b0: cea0 be3b 8ef4 563d 9094 133e cbd3 03be
000000c0: 7cf7 383d 8ebb 273e f66d 9d3e 0e2a 673d
000000d0: a8a5 8e3d b951 b2bc 8399 143e e9b6 e9bd
000000e0: b10a 1fbe 33ba e9bd 6eb7 be3d bcf4 33be
000000f0: c97c 5ebe dd69 5b3d 6b4b 683d e587 7ebc
00000100: f1ba 6b3e 8f34 a7bc 32bc 2cbe 64f8 78bd
00000110: 3ff6 363e 39c7 44bd 173e 02ba b7da 3d3d
00000120: edee 60be 15e3 463e 31a8 85bc b14d cc3d
00000130: c1b3 933e 103b 84bd 9f2f 81bc 67d3 25bd
00000140: 2fae 803e fc8b d0bd 7f73 4b3e 5e55 8bbd
00000150: d3d0 d3bb d391 90be 9dd8 87be 7960 f0bc
00000160: c1c2 833e 551e 66bd 2046 c93d 7534 6bbe
00000170: c1a0 b03e f093 b8bd 4c25 8dbd 0b59 8ebe
00000180: 215b 1ebd f20a 34bc f51a 86be e437 3cbe
00000190: 921c cdbc ce0f 4bbe 6b73 bdbd 93a6 743d
000001a0: 1baa bbbd 53fb ffbd d69f b63d 4f67 58bd
000001b0: 1aee d0bd 15d2 493d 29e7 12be c8e9 8e3b
000001c0: fced 5d3e fc2f 613e 4084 21be dbdf 653e
000001d0: acd8 94bc 4475 22be d251 86bb 0ced 183d
000001e0: 51e1 38be f774 f73d dd8b 493d dd64 66bd
000001f0: c97b 133d 4266 02bd d81e 223d c24f 103d
00000200: de46 01bd 28af 403c 0710 943c e8be 033e
00000210: fc1b 19be ca1d 70be 95c8 aebd 6d26 e3bd
00000220: 0244 e4bd 5186 263d e225 a13d f2f4 693d
00000230: dd04 afbd f2a7 b3bd dcf2 573c 8d17 13be
00000240: 7f6c 113e 44c0 40bd fc3f da3d 1d25 103e
00000250: 19ef 88bd 5dec c03e 3dfe 96be 5fe2 513e
00000260: fc55 933d 13eb 6a3d 892b a43c 77fb 9fbd
00000270: 2631 d53d f10b 253e 81f5 69be 8292 fe3d
00000280: 46de 08be 7c9e f93d 9b75 9b3b bc9d 95bc
00000290: b513 da3d c25e 42be 6361 df3c 9173 d3bd
000002a0: 56b7 9b3d d8e5 99bc 3f3f f1bd 3773 dcbc
000002b0: a227 f0bd 7a02 33bd be91 cbbd 018e 353e
000002c0: d57a 68be fdc0 3abe f4be 0b3e 8b6f 183e
000002d0: e91a fb3d 8849 9f3d 5056 123e 7a71 8d3e
000002e0: 7717 4dbc 359b 193e 93c0 98bd c049 4abe
000002f0: 3032 42bc 3894 163e 2add 063e 8cbf 1a3e
00000300: 07e1 093e fcf9 d9bd 6228 8b3e 6047 253e
00000310: c2eb a43c 9b5a d6bd 6a5d 9abc 395f fabc
00000320: adda 073e 5bd6 203d 3e4f 1dbc 3734 9bbd
00000330: f96a 013e e20c dabd eeed 183d 8df5 89bb
00000340: d424 22bd ad95 82bc 9d73 d1bc 8bdf ca3d
00000350: c867 5c3e f028 69bd fca7 6bbe 2358 a83d
00000360: 4c23 1dbe a278 9d3d 7801 cf3d f0a0 473e
00000370: 7eb3 1a3d ecc7 28be 35d4 b83d 28e6 393e
00000380: 8150 9fb8 1429 37b9 2053 a7bc f844 aabd
00000390: 0f70 0f3e a35c d9bb 079a ffbd 9013 e83c
000003a0: 8839 98bd 5e2b 82be 2c0e 653e 56e6 00bd
000003b0: 75ca f2bc e9f8 d1bd 39ed 0abd 1400 be3c
000003c0: c016 ce3d 5eb8 fd3d 1fec 273e 97b3 77bd
000003d0: 246f 983e a450 a13d 9bf3 dabc aaae fc3c
000003e0: 3a60 cbbd 3643 963d 055c b4bd f97f 733d
000003f0: 891f 9dbd ed2f 023d 62a3 b03d 0e82 e43d
-0.0925132 -0.14978713 -0.14707229 -0.060080282 0.2547394 0.0053534647 0.050606903 0.100371845
0.17104217 0.011441838 -0.16016944 0.14560041 0.08719873 -0.008125012 0.17601456 0.017534662
0.13044079 0.218079 -0.06403251 -0.058201756 -0.041254148 -0.24791464 -0.08300741 0.14431512
0.097488046 -0.017243002 0.06720731 -0.037553146 -0.18080963 0.07138153 -0.21856004 0.08132938
0.21190359 -0.0079944655 -0.12425008 0.025164155 -0.1944487 0.090315 0.060359128 0.0049582073
0.06109589 0.10595228 0.09975037 0.05238223 0.0058175093 0.05247932 0.14412141 -0.12873761
0.045157894 0.1638014 0.30747956 0.05643659 0.0696519 -0.021767484 0.14511685 -0.114118405
-0.15531422 -0.11412468 0.0931233 -0.17573828 -0.2172729 0.053567756 0.05671255 -0.0155353295
0.23020531 -0.020410804 -0.16868666 -0.06078376 0.17867373 -0.048041556 -0.00049683586 0.04635116
-0.21966143 0.19422562 -0.016315551 0.09975756 0.2884808 -0.06456578 -0.015769778 -0.040484812
0.25132892 -0.1018295 0.19868277 -0.06803392 -0.006464103 -0.28236255 -0.2653245 -0.029342877
0.25734523 -0.05618127 0.098278284 -0.2296923 0.34497645 -0.09012592 -0.068918794 -0.2780231
-0.038661126 -0.010988938 -0.26192442 -0.18380696 -0.025038037 -0.19830248 -0.0925053 0.05972917
-0.091633044 -0.12499108 0.08917205 -0.052832898 -0.10201664 0.049272615 -0.14345993 0.004361365
0.21672815 0.21990961 -0.15773106 0.22448675 -0.018169723 -0.15865046 -0.004099109 0.03733544
-0.18054701 0.12082856 0.04920565 -0.056248534 0.036006723 -0.031835802 0.039580196 0.035232313
-0.031561725 0.0117605105 0.018074049 0.12865794 -0.14952081 -0.23448864 -0.08534352 -0.110913135
-0.11145784 0.040655438 0.07868554 0.057118364 -0.085458495 -0.087722674 0.013180461 -0.14364453
0.14201544 -0.04705836 0.10656735 0.14076658 -0.06686229 0.3768033 -0.29490843 0.2049651
0.071941346 0.05735309 0.02004029 -0.07811635 0.10409765 0.16117837 -0.22847559 0.12430288
-0.1336604 0.121884316 0.0047442443 -0.01826369 0.1064829 -0.1898146 0.027268117 -0.10324777
0.07603328 -0.018786356 -0.11779641 -0.026910407 -0.11726309 -0.043703534 -0.099399075 0.17729951
-0.22703107 -0.18237682 0.13647062 0.148863 0.12260992 0.07777697 0.14290738 0.27625638
-0.0125178015 0.15000613 -0.074586056 -0.19754696 -0.011852786 0.14704978 0.13170305 0.15112132
0.13464747 -0.10643384 0.27179247 0.16140509 0.02013195 -0.104665 -0.018843371 -0.030562984
0.13267012 0.039266925 -0.009601412 -0.075783186 0.12638463 -0.106469885 0.037336282 -0.00421018
-0.039585903 -0.015940512 -0.025567824 0.09905919 0.21523964 -0.056923807 -0.230133 0.08219936
-0.15345496 0.076890245 0.10107702 0.19494987 0.037768833 -0.16482514 0.0902485 0.18154204
-7.596706e-05 -0.00017467543 -0.02042538 -0.08313936 0.1400759 -0.0066333576 -0.1248055 0.02832964
-0.07432848 -0.25423712 0.22368687 -0.031469665 -0.029637555 -0.10252554 -0.03391764 0.023193397
0.10062933 0.12388681 0.16398667 -0.060474005 0.29772294 0.07876709 -0.026727488 0.030845005
-0.09930463 0.07337038 -0.08806614 0.059448216 -0.076720305 0.031783987 0.08624913 0.111576185

fc3.bias f4 [10]
00000000: 2ae3 c7be 43b3 ddbe 91e4 ae3d 21cf 853e
00000010: ee33 093f 6606 5abe c36d fe3d cfa8 52be
00000020: a13b 8d3e bfd0 e6bd
-0.390405 -0.43300828 0.08539689 0.2613459 0.53594863 -0.21291503 0.12423279 -0.20572208
0.27584556 -0.11270284
